…
    x = layers.Conv2D(filters=filt, kernel_size=3, activation="relu")(x)
    x = layers.MaxPooling2D(pool_size=4)(x)
    x = layers.Flatten()(x)
    x = layers.Dense(128, activation="relu")(x)
    x = layers.Dense(16, activation="relu")(x)
    outputs = layers.Dense(3)(x)

    
Model: "model"
_________________________________________________________________
 Layer (type)                Output Shape              Param #   
=================================================================
 input_1 (InputLayer)        [(None, 500, 500, 1)]     0         
                                                                 
 conv2d (Conv2D)             (None, 498, 498, 16)      160       
                                                                 
 conv2d_1 (Conv2D)           (None, 496, 496, 16)      2320      
                                                                 
 max_pooling2d (MaxPooling2D  (None, 124, 124, 16)     0         
 )                                                               
                                                                 
 conv2d_2 (Conv2D)           (None, 122, 122, 16)      2320      
                                                                 
 conv2d_3 (Conv2D)           (None, 120, 120, 16)      2320      
                                                                 
 max_pooling2d_1 (MaxPooling  (None, 30, 30, 16)       0         
 2D)                                                             
                                                                 
 conv2d_4 (Conv2D)           (None, 28, 28, 16)        2320      
                                                                 
 conv2d_5 (Conv2D)           (None, 26, 26, 16)        2320      
                                                                 
 max_pooling2d_2 (MaxPooling  (None, 6, 6, 16)         0         
 2D)                                                             
                                                                 
 flatten (Flatten)           (None, 576)               0         
                                                                 
 dense (Dense)               (None, 128)               73856     
                                                                 
 dense_1 (Dense)             (None, 16)                2064      
                                                                 
 dense_2 (Dense)             (None, 3)                 51        
                                                                 
=================================================================
Total params: 87,731
Trainable params: 87,731
Non-trainable params: 0
_________________________________________________________________
Epoch 1/100
2023-01-28 19:45:25.433858: I tensorflow/compiler/xla/stream_executor/cuda/cuda_dnn.cc:428] Loaded cuDNN version 8302
…
