…
        x = layers.Conv2D(filters=filt, kernel_size=3, activation="relu")(x)
        x = layers.MaxPooling2D(pool_size=2)(x)
        x = layers.Flatten()(x)
        x = layers.Dense(32, activation="relu")(x)
        x = layers.Dense(16, activation="relu")(x)
        outputs = layers.Dense(3)(x)

    
Model: "model"
_________________________________________________________________
 Layer (type)                Output Shape              Param #   
=================================================================
 input_1 (InputLayer)        [(None, 500, 500, 1)]     0         
                                                                 
 conv2d (Conv2D)             (None, 490, 490, 32)      3904      
                                                                 
 max_pooling2d (MaxPooling2D  (None, 122, 122, 32)     0         
 )                                                               
                                                                 
 conv2d_1 (Conv2D)           (None, 120, 120, 32)      9248      
                                                                 
 conv2d_2 (Conv2D)           (None, 118, 118, 32)      9248      
                                                                 
 max_pooling2d_1 (MaxPooling  (None, 29, 29, 32)       0         
 2D)                                                             
                                                                 
 conv2d_3 (Conv2D)           (None, 27, 27, 32)        9248      
                                                                 
 conv2d_4 (Conv2D)           (None, 25, 25, 32)        9248      
                                                                 
 max_pooling2d_2 (MaxPooling  (None, 6, 6, 32)         0         
 2D)                                                             
                                                                 
 conv2d_5 (Conv2D)           (None, 4, 4, 32)          9248      
                                                                 
 conv2d_6 (Conv2D)           (None, 2, 2, 32)          9248      
                                                                 
 max_pooling2d_3 (MaxPooling  (None, 1, 1, 32)         0         
 2D)                                                             
                                                                 
 flatten (Flatten)           (None, 32)                0         
                                                                 
 dense (Dense)               (None, 32)                1056      
                                                                 
 dense_1 (Dense)             (None, 16)                528       
                                                                 
 dense_2 (Dense)             (None, 3)                 51        
                                                                 
=================================================================
Total params: 61,027
Trainable params: 61,027
Non-trainable params: 0
_________________________________________________________________
Epoch 1/100
2023-01-28 22:33:21.955753: I tensorflow/compiler/xla/stream_executor/cuda/cuda_dnn.cc:428] Loaded cuDNN version 8302
…
