…
    x = layers.Conv2D(filters=filt, kernel_size=3, activation="relu")(x)
    x = layers.MaxPooling2D(pool_size=2)(x)
    x = layers.Flatten()(x)
    x = layers.Dense(128, activation="relu")(x)
    x = layers.Dense(16, activation="relu")(x)
    outputs = layers.Dense(3)(x)


    
Model: "model"
_________________________________________________________________
 Layer (type)                Output Shape              Param #   
=================================================================
 input_1 (InputLayer)        [(None, 500, 500, 1)]     0         
                                                                 
 conv2d (Conv2D)             (None, 498, 498, 64)      640       
                                                                 
 max_pooling2d (MaxPooling2D  (None, 124, 124, 64)     0         
 )                                                               
                                                                 
 conv2d_1 (Conv2D)           (None, 122, 122, 64)      36928     
                                                                 
 conv2d_2 (Conv2D)           (None, 120, 120, 64)      36928     
                                                                 
 max_pooling2d_1 (MaxPooling  (None, 30, 30, 64)       0         
 2D)                                                             
                                                                 
 conv2d_3 (Conv2D)           (None, 28, 28, 64)        36928     
                                                                 
 conv2d_4 (Conv2D)           (None, 26, 26, 64)        36928     
                                                                 
 max_pooling2d_2 (MaxPooling  (None, 6, 6, 64)         0         
 2D)                                                             
                                                                 
 conv2d_5 (Conv2D)           (None, 4, 4, 64)          36928     
                                                                 
 conv2d_6 (Conv2D)           (None, 2, 2, 64)          36928     
                                                                 
 max_pooling2d_3 (MaxPooling  (None, 1, 1, 64)         0         
 2D)                                                             
                                                                 
 flatten (Flatten)           (None, 64)                0         
                                                                 
 dense (Dense)               (None, 128)               8320      
                                                                 
 dense_1 (Dense)             (None, 16)                2064      
                                                                 
 dense_2 (Dense)             (None, 3)                 51        
                                                                 
=================================================================
Total params: 232,643
Trainable params: 232,643
Non-trainable params: 0
_________________________________________________________________
Epoch 1/100
2023-01-29 01:13:52.740942: I tensorflow/compiler/xla/stream_executor/cuda/cuda_dnn.cc:428] Loaded cuDNN version 8302
…
