…
        x = layers.Dense(128, activation="relu", kernel_regularizer=keras.regularizers.l2(0.01))(x)
        x = layers.Dense(16, activation="relu", kernel_regularizer=keras.regularizers.l2(0.01))(x) 
        outputs = layers.Dense(3)(x)

        model = keras.Model(inputs=inputs, outputs=outputs)
    
Model: "model"
_________________________________________________________________
 Layer (type)                Output Shape              Param #   
=================================================================
 input_1 (InputLayer)        [(None, 500, 500, 1)]     0         
                                                                 
 conv2d (Conv2D)             (None, 490, 490, 16)      1952      
                                                                 
 conv2d_1 (Conv2D)           (None, 484, 484, 16)      12560     
                                                                 
 max_pooling2d (MaxPooling2D  (None, 242, 242, 16)     0         
 )                                                               
                                                                 
 conv2d_2 (Conv2D)           (None, 238, 238, 16)      6416      
                                                                 
 conv2d_3 (Conv2D)           (None, 236, 236, 16)      2320      
                                                                 
 max_pooling2d_1 (MaxPooling  (None, 118, 118, 16)     0         
 2D)                                                             
                                                                 
 conv2d_4 (Conv2D)           (None, 116, 116, 16)      2320      
                                                                 
 conv2d_5 (Conv2D)           (None, 114, 114, 16)      2320      
                                                                 
 max_pooling2d_2 (MaxPooling  (None, 57, 57, 16)       0         
 2D)                                                             
                                                                 
 conv2d_6 (Conv2D)           (None, 55, 55, 16)        2320      
                                                                 
 conv2d_7 (Conv2D)           (None, 53, 53, 16)        2320      
                                                                 
 max_pooling2d_3 (MaxPooling  (None, 26, 26, 16)       0         
 2D)                                                             
                                                                 
 conv2d_8 (Conv2D)           (None, 24, 24, 16)        2320      
                                                                 
 conv2d_9 (Conv2D)           (None, 22, 22, 16)        2320      
                                                                 
 max_pooling2d_4 (MaxPooling  (None, 11, 11, 16)       0         
 2D)                                                             
                                                                 
 flatten (Flatten)           (None, 1936)              0         
                                                                 
 dense (Dense)               (None, 128)               247936    
                                                                 
 dense_1 (Dense)             (None, 16)                2064      
                                                                 
 dense_2 (Dense)             (None, 3)                 51        
                                                                 
=================================================================
Total params: 287,219
Trainable params: 287,219
Non-trainable params: 0
_________________________________________________________________
/zhome/ab/7/153983/project/venv/lib/python3.10/site-packages/keras/utils/image_utils.py:409: UserWarning: grayscale is deprecated. Please use color_mode = "grayscale"
…
