…
        x = layers.Dense(210, activation="relu")(x)
        x = layers.Dense(210, activation="relu")(x)
        x = layers.Dense(32, activation="sigmoid")(x)
        outputs = layers.Dense(3)(x)

        model = keras.Model(inputs=inputs, outputs=outputs)
    
Model: "model"
_________________________________________________________________
 Layer (type)                Output Shape              Param #   
=================================================================
 input_1 (InputLayer)        [(None, 500, 500, 1)]     0         
                                                                 
 conv2d (Conv2D)             (None, 490, 490, 64)      7808      
                                                                 
 conv2d_1 (Conv2D)           (None, 480, 480, 64)      495680    
                                                                 
 max_pooling2d (MaxPooling2D  (None, 240, 240, 64)     0         
 )                                                               
                                                                 
 conv2d_2 (Conv2D)           (None, 236, 236, 64)      102464    
                                                                 
 conv2d_3 (Conv2D)           (None, 232, 232, 64)      102464    
                                                                 
 max_pooling2d_1 (MaxPooling  (None, 116, 116, 64)     0         
 2D)                                                             
                                                                 
 conv2d_4 (Conv2D)           (None, 114, 114, 64)      36928     
                                                                 
 conv2d_5 (Conv2D)           (None, 112, 112, 64)      36928     
                                                                 
 max_pooling2d_2 (MaxPooling  (None, 56, 56, 64)       0         
 2D)                                                             
                                                                 
 conv2d_6 (Conv2D)           (None, 54, 54, 64)        36928     
                                                                 
 conv2d_7 (Conv2D)           (None, 52, 52, 64)        36928     
                                                                 
 max_pooling2d_3 (MaxPooling  (None, 26, 26, 64)       0         
 2D)                                                             
                                                                 
 conv2d_8 (Conv2D)           (None, 24, 24, 64)        36928     
                                                                 
 conv2d_9 (Conv2D)           (None, 22, 22, 64)        36928     
                                                                 
 max_pooling2d_4 (MaxPooling  (None, 11, 11, 64)       0         
 2D)                                                             
                                                                 
 conv2d_10 (Conv2D)          (None, 9, 9, 64)          36928     
                                                                 
 conv2d_11 (Conv2D)          (None, 7, 7, 64)          36928     
                                                                 
 max_pooling2d_5 (MaxPooling  (None, 3, 3, 64)         0         
 2D)                                                             
                                                                 
 flatten (Flatten)           (None, 576)               0         
                                                                 
 dense (Dense)               (None, 210)               121170    
                                                                 
 dense_1 (Dense)             (None, 210)               44310     
                                                                 
 dense_2 (Dense)             (None, 210)               44310     
                                                                 
 dense_3 (Dense)             (None, 32)                6752      
                                                                 
 dense_4 (Dense)             (None, 3)                 99        
                                                                 
=================================================================
Total params: 1,220,481
Trainable params: 1,220,481
Non-trainable params: 0
_________________________________________________________________
/zhome/ab/7/153983/project/venv/lib/python3.10/site-packages/keras/utils/image_utils.py:409: UserWarning: grayscale is deprecated. Please use color_mode = "grayscale"
…
