…
        x = layers.Dense(210, activation="relu", kernel_regularizer=keras.regularizers.l2(0.01))(x)
        x = layers.Dense(32, activation="sigmoid", kernel_regularizer=keras.regularizers.l2(0.01))(x)
        outputs = layers.Dense(3)(x)
    
Model: "model"
_________________________________________________________________
 Layer (type)                Output Shape              Param #   
=================================================================
 input_1 (InputLayer)        [(None, 500, 500, 1)]     0         
                                                                 
 conv2d (Conv2D)             (None, 490, 490, 32)      3904      
                                                                 
 conv2d_1 (Conv2D)           (None, 480, 480, 32)      123936    
                                                                 
 conv2d_2 (Conv2D)           (None, 470, 470, 32)      123936    
                                                                 
 max_pooling2d (MaxPooling2D  (None, 235, 235, 32)     0         
 )                                                               
                                                                 
 conv2d_3 (Conv2D)           (None, 231, 231, 32)      25632     
                                                                 
 conv2d_4 (Conv2D)           (None, 227, 227, 32)      25632     
                                                                 
 conv2d_5 (Conv2D)           (None, 223, 223, 32)      25632     
                                                                 
 max_pooling2d_1 (MaxPooling  (None, 111, 111, 32)     0         
 2D)                                                             
                                                                 
 conv2d_6 (Conv2D)           (None, 109, 109, 32)      9248      
                                                                 
 conv2d_7 (Conv2D)           (None, 107, 107, 32)      9248      
                                                                 
 conv2d_8 (Conv2D)           (None, 105, 105, 32)      9248      
                                                                 
 max_pooling2d_2 (MaxPooling  (None, 52, 52, 32)       0         
 2D)                                                             
                                                                 
 conv2d_9 (Conv2D)           (None, 50, 50, 32)        9248      
                                                                 
 conv2d_10 (Conv2D)          (None, 48, 48, 32)        9248      
                                                                 
 conv2d_11 (Conv2D)          (None, 46, 46, 32)        9248      
                                                                 
 max_pooling2d_3 (MaxPooling  (None, 23, 23, 32)       0         
 2D)                                                             
                                                                 
 conv2d_12 (Conv2D)          (None, 21, 21, 32)        9248      
                                                                 
 conv2d_13 (Conv2D)          (None, 19, 19, 32)        9248      
                                                                 
 conv2d_14 (Conv2D)          (None, 17, 17, 32)        9248      
                                                                 
 max_pooling2d_4 (MaxPooling  (None, 4, 4, 32)         0         
 2D)                                                             
                                                                 
 flatten (Flatten)           (None, 512)               0         
                                                                 
 dense (Dense)               (None, 210)               107730    
                                                                 
 dense_1 (Dense)             (None, 210)               44310     
                                                                 
 dense_2 (Dense)             (None, 210)               44310     
                                                                 
 dense_3 (Dense)             (None, 32)                6752      
                                                                 
 dense_4 (Dense)             (None, 3)                 99        
                                                                 
=================================================================
Total params: 615,105
Trainable params: 615,105
Non-trainable params: 0
_________________________________________________________________
/zhome/ab/7/153983/project/venv/lib/python3.10/site-packages/keras/utils/image_utils.py:409: UserWarning: grayscale is deprecated. Please use color_mode = "grayscale"
…
