…
        x = layers.Flatten()(x)
        x = layers.Dense(64, activation="relu", kernel_regularizer=keras.regularizers.l1(0.01))(x) 
        outputs = layers.Dense(3)(x)

        model = keras.Model(inputs=inputs, outputs=outputs)
    
Model: "model"
_________________________________________________________________
 Layer (type)                Output Shape              Param #   
=================================================================
 input_1 (InputLayer)        [(None, 500, 500, 1)]     0         
                                                                 
 conv2d (Conv2D)             (None, 490, 490, 4)       488       
                                                                 
 conv2d_1 (Conv2D)           (None, 484, 484, 4)       788       
                                                                 
 max_pooling2d (MaxPooling2D  (None, 242, 242, 4)      0         
 )                                                               
                                                                 
 conv2d_2 (Conv2D)           (None, 238, 238, 4)       404       
                                                                 
 conv2d_3 (Conv2D)           (None, 236, 236, 4)       148       
                                                                 
 max_pooling2d_1 (MaxPooling  (None, 118, 118, 4)      0         
 2D)                                                             
                                                                 
 conv2d_4 (Conv2D)           (None, 116, 116, 4)       148       
                                                                 
 conv2d_5 (Conv2D)           (None, 114, 114, 4)       148       
                                                                 
 max_pooling2d_2 (MaxPooling  (None, 57, 57, 4)        0         
 2D)                                                             
                                                                 
 conv2d_6 (Conv2D)           (None, 55, 55, 4)         148       
                                                                 
 conv2d_7 (Conv2D)           (None, 53, 53, 4)         148       
                                                                 
 max_pooling2d_3 (MaxPooling  (None, 26, 26, 4)        0         
 2D)                                                             
                                                                 
 flatten (Flatten)           (None, 2704)              0         
                                                                 
 dense (Dense)               (None, 64)                173120    
                                                                 
 dense_1 (Dense)             (None, 3)                 195       
                                                                 
=================================================================
Total params: 175,735
Trainable params: 175,735
Non-trainable params: 0
_________________________________________________________________
Epoch 1/100
2023-01-26 11:49:27.010508: I tensorflow/compiler/xla/stream_executor/cuda/cuda_dnn.cc:428] Loaded cuDNN version 8302
…
