…
        x = layers.Flatten()(x)
        x = layers.Dense(64, activation="relu", kernel_regularizer=keras.regularizers.l2(0.01))(x)
        outputs = layers.Dense(3)(x)
        model = keras.Model(inputs=inputs, outputs=outputs)
    
Model: "model"
_________________________________________________________________
 Layer (type)                Output Shape              Param #   
=================================================================
 input_2 (InputLayer)        [(None, 500, 500, 1)]     0         
                                                                 
 conv2d_1 (Conv2D)           (None, 490, 490, 16)      1952      
                                                                 
 max_pooling2d (MaxPooling2D  (None, 122, 122, 16)     0         
 )                                                               
                                                                 
 conv2d_2 (Conv2D)           (None, 118, 118, 16)      6416      
                                                                 
 conv2d_3 (Conv2D)           (None, 114, 114, 16)      6416      
                                                                 
 max_pooling2d_1 (MaxPooling  (None, 28, 28, 16)       0         
 2D)                                                             
                                                                 
 conv2d_4 (Conv2D)           (None, 24, 24, 16)        6416      
                                                                 
 conv2d_5 (Conv2D)           (None, 20, 20, 16)        6416      
                                                                 
 flatten (Flatten)           (None, 6400)              0         
                                                                 
 dense (Dense)               (None, 64)                409664    
                                                                 
 dense_1 (Dense)             (None, 3)                 195       
                                                                 
=================================================================
Total params: 437,475
Trainable params: 437,475
Non-trainable params: 0
_________________________________________________________________
Epoch 1/100
2023-01-27 09:12:39.314679: I tensorflow/compiler/xla/stream_executor/cuda/cuda_dnn.cc:428] Loaded cuDNN version 8302
…
