…
        x = layers.Flatten()(x)
        x = layers.Dense(64, activation="relu", kernel_regularizer=keras.regularizers.l2(0.01))(x) 
        outputs = layers.Dense(3)(x)

        model = keras.Model(inputs=inputs, outputs=outputs)
    
Model: "model"
_________________________________________________________________
 Layer (type)                Output Shape              Param #   
=================================================================
 input_1 (InputLayer)        [(None, 500, 500, 1)]     0         
                                                                 
 conv2d (Conv2D)             (None, 490, 490, 16)      1952      
                                                                 
 conv2d_1 (Conv2D)           (None, 480, 480, 16)      30992     
                                                                 
 max_pooling2d (MaxPooling2D  (None, 120, 120, 16)     0         
 )                                                               
                                                                 
 conv2d_2 (Conv2D)           (None, 118, 118, 16)      2320      
                                                                 
 conv2d_3 (Conv2D)           (None, 116, 116, 16)      2320      
                                                                 
 max_pooling2d_1 (MaxPooling  (None, 58, 58, 16)       0         
 2D)                                                             
                                                                 
 conv2d_4 (Conv2D)           (None, 56, 56, 16)        2320      
                                                                 
 conv2d_5 (Conv2D)           (None, 54, 54, 16)        2320      
                                                                 
 max_pooling2d_2 (MaxPooling  (None, 27, 27, 16)       0         
 2D)                                                             
                                                                 
 conv2d_6 (Conv2D)           (None, 25, 25, 16)        2320      
                                                                 
 conv2d_7 (Conv2D)           (None, 23, 23, 16)        2320      
                                                                 
 max_pooling2d_3 (MaxPooling  (None, 11, 11, 16)       0         
 2D)                                                             
                                                                 
 flatten (Flatten)           (None, 1936)              0         
                                                                 
 dense (Dense)               (None, 64)                123968    
                                                                 
 dense_1 (Dense)             (None, 3)                 195       
                                                                 
=================================================================
Total params: 171,027
Trainable params: 171,027
Non-trainable params: 0
_________________________________________________________________
Epoch 1/100
2023-01-26 05:31:19.609421: I tensorflow/compiler/xla/stream_executor/cuda/cuda_dnn.cc:428] Loaded cuDNN version 8302
…
