…
        x = layers.Flatten()(x)
        x = layers.Dense(64, activation="relu", kernel_regularizer=keras.regularizers.l1(0.01))(x) 
        outputs = layers.Dense(3)(x)

        model = keras.Model(inputs=inputs, outputs=outputs)
    
Model: "model"
_________________________________________________________________
 Layer (type)                Output Shape              Param #   
=================================================================
 input_1 (InputLayer)        [(None, 500, 500, 1)]     0         
                                                                 
 conv2d (Conv2D)             (None, 490, 490, 4)       488       
                                                                 
 conv2d_1 (Conv2D)           (None, 484, 484, 4)       788       
                                                                 
 max_pooling2d (MaxPooling2D  (None, 121, 121, 4)      0         
 )                                                               
                                                                 
 conv2d_2 (Conv2D)           (None, 119, 119, 4)       148       
                                                                 
 conv2d_3 (Conv2D)           (None, 117, 117, 4)       148       
                                                                 
 max_pooling2d_1 (MaxPooling  (None, 58, 58, 4)        0         
 2D)                                                             
                                                                 
 conv2d_4 (Conv2D)           (None, 56, 56, 4)         148       
                                                                 
 conv2d_5 (Conv2D)           (None, 54, 54, 4)         148       
                                                                 
 max_pooling2d_2 (MaxPooling  (None, 27, 27, 4)        0         
 2D)                                                             
                                                                 
 conv2d_6 (Conv2D)           (None, 25, 25, 4)         148       
                                                                 
 conv2d_7 (Conv2D)           (None, 23, 23, 4)         148       
                                                                 
 max_pooling2d_3 (MaxPooling  (None, 11, 11, 4)        0         
 2D)                                                             
                                                                 
 flatten (Flatten)           (None, 484)               0         
                                                                 
 dense (Dense)               (None, 64)                31040     
                                                                 
 dense_1 (Dense)             (None, 3)                 195       
                                                                 
=================================================================
Total params: 33,399
Trainable params: 33,399
Non-trainable params: 0
_________________________________________________________________
Epoch 1/100
2023-01-27 12:35:42.831808: I tensorflow/compiler/xla/stream_executor/cuda/cuda_dnn.cc:428] Loaded cuDNN version 8302
…
