…
x = layers.Conv2D(filters=32, kernel_size=3, activation="relu")(x)
x = layers.MaxPooling2D(pool_size=4)(x)
x = layers.Flatten()(x)
x = layers.Dense(128, activation="relu")(x)
x = layers.Dense(16, activation="relu")(x)
outputs = layers.Dense(3)(x)

Model: "model"
_________________________________________________________________
 Layer (type)                Output Shape              Param #   
=================================================================
 input_1 (InputLayer)        [(None, 500, 500, 1)]     0         
                                                                 
 conv2d_3 (Conv2D)           (None, 498, 498, 32)      320       
                                                                 
 max_pooling2d_1 (MaxPooling  (None, 124, 124, 32)     0         
 2D)                                                             
                                                                 
 conv2d_4 (Conv2D)           (None, 122, 122, 32)      9248      
                                                                 
 conv2d_5 (Conv2D)           (None, 120, 120, 32)      9248      
                                                                 
 max_pooling2d_2 (MaxPooling  (None, 30, 30, 32)       0         
 2D)                                                             
                                                                 
 conv2d_6 (Conv2D)           (None, 28, 28, 32)        9248      
                                                                 
 max_pooling2d_3 (MaxPooling  (None, 7, 7, 32)         0         
 2D)                                                             
                                                                 
 flatten (Flatten)           (None, 1568)              0         
                                                                 
 dense (Dense)               (None, 128)               200832    
                                                                 
 dense_1 (Dense)             (None, 16)                2064      
                                                                 
 dense_2 (Dense)             (None, 3)                 51        
                                                                 
=================================================================
Total params: 231,011
Trainable params: 231,011
Non-trainable params: 0
_________________________________________________________________
/zhome/ab/7/153983/project/venv/lib/python3.10/site-packages/keras/utils/image_utils.py:409: UserWarning: grayscale is deprecated. Please use color_mode = "grayscale"
…
